…
INFO:root:Loading pretrained model from /network/scratch/s/sonia.joseph/jepa_models/github_models/vit-l-16/vitl16.pth.tar
overriding latest path with hardcoded paths...
INFO:root:Loading pretrained model from /network/scratch/s/sonia.joseph/jepa_models/github_models/vit-l-16/vitl16.pth.tar
overriding latest path with hardcoded paths...
INFO:root:Loading pretrained model from /network/scratch/s/sonia.joseph/jepa_models/github_models/vit-l-16/vitl16.pth.tar
overriding latest path with hardcoded paths...
INFO:root:Loading pretrained model from /network/scratch/s/sonia.joseph/jepa_models/github_models/vit-l-16/vitl16.pth.tar
VisionTransformer(
  (patch_embed): PatchEmbed3D(
    (proj): Conv3d(3, 1024, kernel_size=(2, 16, 16), stride=(2, 16, 16))
  )
  (blocks): ModuleList(
    (0-23): 24 x Block(
      (norm1): LayerNorm((1024,), eps=1e-06, elementwise_affine=True)
      (attn): Attention(
        (qkv): Linear(in_features=1024, out_features=3072, bias=True)
        (attn_drop): Dropout(p=0.0, inplace=False)
        (proj): Linear(in_features=1024, out_features=1024, bias=True)
        (proj_drop): Dropout(p=0.0, inplace=False)
      )
      (norm2): LayerNorm((1024,), eps=1e-06, elementwise_affine=True)
      (mlp): MLP(
        (fc1): Linear(in_features=1024, out_features=4096, bias=True)
        (act): GELU(approximate='none')
        (fc2): Linear(in_features=4096, out_features=1024, bias=True)
        (drop): Dropout(p=0.0, inplace=False)
      )
    )
  )
  (norm): LayerNorm((1024,), eps=1e-06, elementwise_affine=True)
)
INFO:root:loaded pretrained model with msg: <All keys matched successfully>
INFO:root:loaded pretrained encoder from epoch: 300
 path: /network/scratch/s/sonia.joseph/jepa_models/github_models/vit-l-16/vitl16.pth.tar
VisionTransformer(
  (patch_embed): PatchEmbed3D(
    (proj): Conv3d(3, 1024, kernel_size=(2, 16, 16), stride=(2, 16, 16))
  )
  (blocks): ModuleList(
    (0-23): 24 x Block(
      (norm1): LayerNorm((1024,), eps=1e-06, elementwise_affine=True)
      (attn): Attention(
        (qkv): Linear(in_features=1024, out_features=3072, bias=True)
        (attn_drop): Dropout(p=0.0, inplace=False)
        (proj): Linear(in_features=1024, out_features=1024, bias=True)
        (proj_drop): Dropout(p=0.0, inplace=False)
      )
      (norm2): LayerNorm((1024,), eps=1e-06, elementwise_affine=True)
      (mlp): MLP(
        (fc1): Linear(in_features=1024, out_features=4096, bias=True)
        (act): GELU(approximate='none')
        (fc2): Linear(in_features=4096, out_features=1024, bias=True)
        (drop): Dropout(p=0.0, inplace=False)
      )
    )
  )
  (norm): LayerNorm((1024,), eps=1e-06, elementwise_affine=True)
)
INFO:root:loaded pretrained model with msg: <All keys matched successfully>
INFO:root:loaded pretrained encoder from epoch: 300
 path: /network/scratch/s/sonia.joseph/jepa_models/github_models/vit-l-16/vitl16.pth.tar
VisionTransformer(
  (patch_embed): PatchEmbed3D(
    (proj): Conv3d(3, 1024, kernel_size=(2, 16, 16), stride=(2, 16, 16))
  )
  (blocks): ModuleList(
    (0-23): 24 x Block(
      (norm1): LayerNorm((1024,), eps=1e-06, elementwise_affine=True)
      (attn): Attention(
        (qkv): Linear(in_features=1024, out_features=3072, bias=True)
        (attn_drop): Dropout(p=0.0, inplace=False)
        (proj): Linear(in_features=1024, out_features=1024, bias=True)
        (proj_drop): Dropout(p=0.0, inplace=False)
      )
      (norm2): LayerNorm((1024,), eps=1e-06, elementwise_affine=True)
      (mlp): MLP(
        (fc1): Linear(in_features=1024, out_features=4096, bias=True)
        (act): GELU(approximate='none')
        (fc2): Linear(in_features=4096, out_features=1024, bias=True)
        (drop): Dropout(p=0.0, inplace=False)
      )
    )
  )
  (norm): LayerNorm((1024,), eps=1e-06, elementwise_affine=True)
)
INFO:root:loaded pretrained model with msg: <All keys matched successfully>
INFO:root:loaded pretrained encoder from epoch: 300
 path: /network/scratch/s/sonia.joseph/jepa_models/github_models/vit-l-16/vitl16.pth.tar
VisionTransformer(
  (patch_embed): PatchEmbed3D(
    (proj): Conv3d(3, 1024, kernel_size=(2, 16, 16), stride=(2, 16, 16))
  )
  (blocks): ModuleList(
    (0-23): 24 x Block(
      (norm1): LayerNorm((1024,), eps=1e-06, elementwise_affine=True)
      (attn): Attention(
        (qkv): Linear(in_features=1024, out_features=3072, bias=True)
        (attn_drop): Dropout(p=0.0, inplace=False)
        (proj): Linear(in_features=1024, out_features=1024, bias=True)
        (proj_drop): Dropout(p=0.0, inplace=False)
      )
      (norm2): LayerNorm((1024,), eps=1e-06, elementwise_affine=True)
      (mlp): MLP(
        (fc1): Linear(in_features=1024, out_features=4096, bias=True)
        (act): GELU(approximate='none')
        (fc2): Linear(in_features=4096, out_features=1024, bias=True)
        (drop): Dropout(p=0.0, inplace=False)
      )
    )
  )
  (norm): LayerNorm((1024,), eps=1e-06, elementwise_affine=True)
)
INFO:root:loaded pretrained model with msg: <All keys matched successfully>
INFO:root:loaded pretrained encoder from epoch: 300
 path: /network/scratch/s/sonia.joseph/jepa_models/github_models/vit-l-16/vitl16.pth.tar
model state dict at initialization
INFO:root:implementing auto-agument strategy
INFO:root:data-path /network/scratch/s/sonia.joseph/datasets/kaggle_datasets/ILSVRC/Data/CLS-LOC/train/
…
INFO:root:loaded pretrained classifier from epoch 20 with msg: <All keys matched successfully>
INFO:root:loaded optimizers from epoch 20
INFO:root:read-path: /network/scratch/s/sonia.joseph/jepa_models/github_models/vit-l-16/probes/in1k-probe.pth.tar
Loading checkpoint dict_keys(['classifier', 'opt', 'scaler', 'epoch', 'batch_size', 'world_size', 'lr'])
INFO:root:loaded pretrained classifier from epoch 20 with msg: <All keys matched successfully>
INFO:root:loaded optimizers from epoch 20
INFO:root:read-path: /network/scratch/s/sonia.joseph/jepa_models/github_models/vit-l-16/probes/in1k-probe.pth.tar
loaded checkpoint
VisionTransformer(
  (patch_embed): PatchEmbed3D(
    (proj): Conv3d(3, 1024, kernel_size=(2, 16, 16), stride=(2, 16, 16))
  )
  (blocks): ModuleList(
    (0-23): 24 x Block(
      (norm1): LayerNorm((1024,), eps=1e-06, elementwise_affine=True)
      (attn): Attention(
        (qkv): Linear(in_features=1024, out_features=3072, bias=True)
        (attn_drop): Dropout(p=0.0, inplace=False)
        (proj): Linear(in_features=1024, out_features=1024, bias=True)
        (proj_drop): Dropout(p=0.0, inplace=False)
      )
      (norm2): LayerNorm((1024,), eps=1e-06, elementwise_affine=True)
      (mlp): MLP(
        (fc1): Linear(in_features=1024, out_features=4096, bias=True)
        (act): GELU(approximate='none')
        (fc2): Linear(in_features=4096, out_features=1024, bias=True)
        (drop): Dropout(p=0.0, inplace=False)
      )
    )
  )
  (norm): LayerNorm((1024,), eps=1e-06, elementwise_affine=True)
)
DistributedDataParallel(
  (module): AttentiveClassifier(
    (pooler): AttentivePooler(
      (cross_attention_block): CrossAttentionBlock(
        (norm1): LayerNorm((1024,), eps=1e-05, elementwise_affine=True)
        (xattn): CrossAttention(
          (q): Linear(in_features=1024, out_features=1024, bias=True)
          (kv): Linear(in_features=1024, out_features=2048, bias=True)
          (proj): Linear(in_features=1024, out_features=1024, bias=True)
        )
        (norm2): LayerNorm((1024,), eps=1e-05, elementwise_affine=True)
        (mlp): MLP(
          (fc1): Linear(in_features=1024, out_features=4096, bias=True)
          (act): GELU(approximate='none')
          (fc2): Linear(in_features=4096, out_features=1024, bias=True)
          (drop): Dropout(p=0.0, inplace=False)
        )
      )
    )
    (linear): Linear(in_features=1024, out_features=1000, bias=True)
  )
)
INFO:root:Epoch 21
loaded checkpoint
VisionTransformer(
  (patch_embed): PatchEmbed3D(
    (proj): Conv3d(3, 1024, kernel_size=(2, 16, 16), stride=(2, 16, 16))
  )
  (blocks): ModuleList(
    (0-23): 24 x Block(
      (norm1): LayerNorm((1024,), eps=1e-06, elementwise_affine=True)
      (attn): Attention(
        (qkv): Linear(in_features=1024, out_features=3072, bias=True)
        (attn_drop): Dropout(p=0.0, inplace=False)
        (proj): Linear(in_features=1024, out_features=1024, bias=True)
        (proj_drop): Dropout(p=0.0, inplace=False)
      )
      (norm2): LayerNorm((1024,), eps=1e-06, elementwise_affine=True)
      (mlp): MLP(
        (fc1): Linear(in_features=1024, out_features=4096, bias=True)
        (act): GELU(approximate='none')
        (fc2): Linear(in_features=4096, out_features=1024, bias=True)
        (drop): Dropout(p=0.0, inplace=False)
      )
    )
  )
  (norm): LayerNorm((1024,), eps=1e-06, elementwise_affine=True)
)
DistributedDataParallel(
  (module): AttentiveClassifier(
    (pooler): AttentivePooler(
      (cross_attention_block): CrossAttentionBlock(
        (norm1): LayerNorm((1024,), eps=1e-05, elementwise_affine=True)
        (xattn): CrossAttention(
          (q): Linear(in_features=1024, out_features=1024, bias=True)
          (kv): Linear(in_features=1024, out_features=2048, bias=True)
          (proj): Linear(in_features=1024, out_features=1024, bias=True)
        )
        (norm2): LayerNorm((1024,), eps=1e-05, elementwise_affine=True)
        (mlp): MLP(
          (fc1): Linear(in_features=1024, out_features=4096, bias=True)
          (act): GELU(approximate='none')
          (fc2): Linear(in_features=4096, out_features=1024, bias=True)
          (drop): Dropout(p=0.0, inplace=False)
        )
      )
    )
    (linear): Linear(in_features=1024, out_features=1000, bias=True)
  )
)
INFO:root:Epoch 21
loaded checkpoint
VisionTransformer(
  (patch_embed): PatchEmbed3D(
    (proj): Conv3d(3, 1024, kernel_size=(2, 16, 16), stride=(2, 16, 16))
  )
  (blocks): ModuleList(
    (0-23): 24 x Block(
      (norm1): LayerNorm((1024,), eps=1e-06, elementwise_affine=True)
      (attn): Attention(
        (qkv): Linear(in_features=1024, out_features=3072, bias=True)
        (attn_drop): Dropout(p=0.0, inplace=False)
        (proj): Linear(in_features=1024, out_features=1024, bias=True)
        (proj_drop): Dropout(p=0.0, inplace=False)
      )
      (norm2): LayerNorm((1024,), eps=1e-06, elementwise_affine=True)
      (mlp): MLP(
        (fc1): Linear(in_features=1024, out_features=4096, bias=True)
        (act): GELU(approximate='none')
        (fc2): Linear(in_features=4096, out_features=1024, bias=True)
        (drop): Dropout(p=0.0, inplace=False)
      )
    )
  )
  (norm): LayerNorm((1024,), eps=1e-06, elementwise_affine=True)
)
DistributedDataParallel(
  (module): AttentiveClassifier(
    (pooler): AttentivePooler(
      (cross_attention_block): CrossAttentionBlock(
        (norm1): LayerNorm((1024,), eps=1e-05, elementwise_affine=True)
        (xattn): CrossAttention(
          (q): Linear(in_features=1024, out_features=1024, bias=True)
          (kv): Linear(in_features=1024, out_features=2048, bias=True)
          (proj): Linear(in_features=1024, out_features=1024, bias=True)
        )
        (norm2): LayerNorm((1024,), eps=1e-05, elementwise_affine=True)
        (mlp): MLP(
          (fc1): Linear(in_features=1024, out_features=4096, bias=True)
          (act): GELU(approximate='none')
          (fc2): Linear(in_features=4096, out_features=1024, bias=True)
          (drop): Dropout(p=0.0, inplace=False)
        )
      )
    )
    (linear): Linear(in_features=1024, out_features=1000, bias=True)
  )
)
INFO:root:Epoch 21
loaded checkpoint
VisionTransformer(
  (patch_embed): PatchEmbed3D(
    (proj): Conv3d(3, 1024, kernel_size=(2, 16, 16), stride=(2, 16, 16))
  )
  (blocks): ModuleList(
    (0-23): 24 x Block(
      (norm1): LayerNorm((1024,), eps=1e-06, elementwise_affine=True)
      (attn): Attention(
        (qkv): Linear(in_features=1024, out_features=3072, bias=True)
        (attn_drop): Dropout(p=0.0, inplace=False)
        (proj): Linear(in_features=1024, out_features=1024, bias=True)
        (proj_drop): Dropout(p=0.0, inplace=False)
      )
      (norm2): LayerNorm((1024,), eps=1e-06, elementwise_affine=True)
      (mlp): MLP(
        (fc1): Linear(in_features=1024, out_features=4096, bias=True)
        (act): GELU(approximate='none')
        (fc2): Linear(in_features=4096, out_features=1024, bias=True)
        (drop): Dropout(p=0.0, inplace=False)
      )
    )
  )
  (norm): LayerNorm((1024,), eps=1e-06, elementwise_affine=True)
)
DistributedDataParallel(
  (module): AttentiveClassifier(
    (pooler): AttentivePooler(
      (cross_attention_block): CrossAttentionBlock(
        (norm1): LayerNorm((1024,), eps=1e-05, elementwise_affine=True)
        (xattn): CrossAttention(
          (q): Linear(in_features=1024, out_features=1024, bias=True)
          (kv): Linear(in_features=1024, out_features=2048, bias=True)
          (proj): Linear(in_features=1024, out_features=1024, bias=True)
        )
        (norm2): LayerNorm((1024,), eps=1e-05, elementwise_affine=True)
        (mlp): MLP(
          (fc1): Linear(in_features=1024, out_features=4096, bias=True)
          (act): GELU(approximate='none')
          (fc2): Linear(in_features=4096, out_features=1024, bias=True)
          (drop): Dropout(p=0.0, inplace=False)
        )
      )
    )
    (linear): Linear(in_features=1024, out_features=1000, bias=True)
  )
)
INFO:root:Epoch 21
Training?  False
INFO:root:[    0] 0.000% (loss: 21.297) [mem: 1.48e+03]
Training?  False
INFO:root:[    0] 0.000% (loss: 16.312) [mem: 1.48e+03]
Training?  False
INFO:root:[    0] 0.000% (loss: 17.969) [mem: 1.48e+03]
Training?  False
INFO:root:[    0] 0.000% (loss: 22.734) [mem: 1.48e+03]
Training?  False
INFO:root:[   20] 0.000% (loss: 19.469) [mem: 1.48e+03]
…
